weights/eye_mbv3_128.onnx (onnx, 226522 bytes, 18 tensors)

features.1.block.1.fc1.bias f4 [8]
-1.7194443e-09 -2.3166298e-09 -0.00016355385 -1.8774664e-09 -1.2891413e-09 1.7532132e-08 -5.6570957e-09 9.6723e-11
00000000: 9151 ecb0 9532 1fb1 a77f 2bb9 bd04 01b1
00000010: a12d b1b0 9199 9632 5760 c2b1 35b2 d42e

features.1.block.1.fc2.bias f4 [16]
0.50623554 0.48735148 0.33715758 -1.2410741 -0.80193824 1.32129 -0.2919543 -0.38629475
0.52102846 -0.39696783 0.78825706 -0.24667548 -0.29482383 -0.022673497 0.2526367 -0.40773237
00000000: a798 013f 2286 f93e eb9f ac3e 84db 9ebf
00000010: d34b 4dbf 0820 a93f 097b 95be 6dc8 c5be
00000020: 1f62 053f 5e3f cbbe 37cb 493f 7f98 7cbe
00000030: 26f3 96be c5bd b9bc 9959 813e 4cc2 d0be

features.4.block.2.fc1.bias f4 [24]
-2.9211575e-09 -6.3220145e-09 -1.1813039e-09 -4.2175796e-09 -2.133115e-09 -4.7858895e-09 -3.2383856e-09 7.1056134e-09
-1.8312054e-08 -5.92601e-09 0.20439135 -1.9252493e-09 -3.904668e-09 -2.8423386e-08 7.3140827e-10 -1.7313776e-07
-1.8276763e-09 -4.4766733e-09 -1.0233917e-09 -1.2708817e-09 2.3359028e-09 -8.444231e-09 -4.032996e-09 -1.12403364e-10
00000000: 8cbd 48b1 0739 d9b1 705b a2b0 39ea 90b1
00000010: 2896 12b1 2171 a4b1 488a 5eb1 a325 f431
00000020: a24c 9db2 bc9d cbb1 f74b 513e 584d 04b1
00000030: d329 86b1 b027 f4b2 480c 4930 bfe7 39b4
00000040: a531 fbb0 3cd1 99b1 65a7 8cb0 2dab aeb0
00000050: a385 2031 1f12 11b2 9c92 8ab1 782d f7ae

features.5.block.2.fc1.bias f4 [64]
-0.056071073 0.24423593 -0.012210363 0.07340172 0.09073554 0.07432015 0.13314685 0.1362023
-0.14086142 -0.092618056 0.21579002 0.145628 -0.30657262 -0.20210361 0.035784107 0.017100055
-0.05089729 0.3871918 0.12302068 -0.0066793975 0.023769995 0.038347267 0.120596685 0.4365011
0.058430575 0.17595214 0.17390022 -0.029761167 0.2043161 -0.030512443 -0.14190792 0.11019336
-0.059941594 -0.011297374 0.124591134 0.036308702 -0.021916043 0.29472196 -0.09118077 -0.05361352
0.55951965 0.21601062 0.1627926 -0.006792295 0.27661347 0.005094233 -0.17138948 0.03777391
-0.034431614 0.12578581 -0.1512778 0.0055548805 -0.033232298 0.022268474 0.19642608 0.08811188
-0.003224724 -0.0152494265 0.48228055 0.25604078 0.03806812 0.12132588 -0.047930233 0.14619051
00000000: c8aa 65bd fc18 7a3e f90d 48bc a453 963d
00000010: 8ed3 b93d 2a35 983d a657 083e 9e78 0b3e
00000020: fa3d 10be 89ae bdbd 0ff8 5c3e 821f 153e
00000030: 16f7 9cbe 40f4 4ebe 5b92 123d 6a15 8c3c
00000040: ad79 50bd 013e c63e 44f2 fb3d d9de dabb
00000050: 4bb9 c23c 0612 1d3d 65fb f63d 127d df3e
00000060: e654 6f3d cc2c 343e e612 323e b1cd f3bc
00000070: 3d38 513e 3bf5 f9bc 4f50 11be 0ead e13d
00000080: 5185 75bd 9f18 39bc a329 ff3d 6fb8 143d
00000090: 4689 b3bc cce5 963e fcbc babd da99 5bbd
000000a0: ae3c 0f3f e331 5d3e 1ab3 263e e691 debb
000000b0: 48a0 8d3e 86ed a63b b980 2fbe d1b8 1a3d
000000c0: 2a08 0dbd ffcd 003e 91e8 1abe b705 b63b
000000d0: 971e 08bd 606c b63c eb23 493e 0074 b43d
000000e0: e455 53bb bbd8 79bc 7aed f63e c717 833e
000000f0: 51ed 1b3d b479 f83d 7e52 44bd f7b2 153e

features.6.block.2.fc1.bias f4 [64]
-0.004298333 0.053204685 -0.063115604 0.20329441 0.094953656 0.16923004 0.057389766 -0.09208456
0.191969 0.19652826 -0.03080167 0.112287164 0.108612105 0.09478832 0.007440655 -0.04837664
-0.054010622 0.1813223 0.28820327 0.28099602 -0.027262656 0.16172314 0.075829454 0.15315387
-0.0840135 0.19385423 0.026746253 -0.03023122 0.064384066 0.19583431 -0.1862319 0.0161582
-0.02088423 -0.00016392663 0.024792554 0.111251436 0.56292146 0.12407569 0.0631503 0.22254296
0.16035725 0.05004317 0.07667841 0.09256081 0.15208915 0.23808801 -0.065093614 0.09095356
0.06748867 0.10683109 0.08280959 0.28647125 -0.07868134 -0.26551697 -0.24141361 0.31176457
0.0032168706 0.05548577 -0.0108207 0.006901035 0.15856802 0.22814897 0.0072504217 0.04191802
00000000: 08d9 8cbb 28ed 593d c142 81bd 692c 503e
00000010: 1077 c23d a44a 2d3e 8811 6b3d d496 bcbd
00000020: 8693 443e b43e 493e c953 fcbc d0f6 e53d
00000030: 0670 de3d 6120 c23d bdd0 f33b 9526 46bd
00000040: 3e3a 5dbd 8eac 393e 618f 933e b6de 8f3e
00000050: ef55 dfbc c09a 253e 794c 9b3d 5ed4 1c3e
00000060: 450f acbd b981 463e f51a db3c 77a7 f7bc
00000070: cbdb 833d ca88 483e 93b3 3ebe 345e 843c
00000080: 6815 abbc b8e3 2bb9 c119 cb3c cbd7 e33d
00000090: 9f1b 103f 651b fe3d f254 813d 4de2 633e
000000a0: b134 243e 11fa 4c3d 9209 9d3d 8690 bd3d
000000b0: 42bd 1b3e 58cd 733e cd4f 85bd dc45 ba3d
000000c0: 8037 8a3d 42ca da3d 1398 a93d 5cac 923e
000000d0: af23 a1bd d7f1 87be 2135 77be 9b9f 9f3e
000000e0: 22d2 523b 0c45 633d 4e49 31bc 1422 e23b
000000f0: a85f 223e e29f 693e f294 ed3b 3bb2 2b3d

features.7.block.2.fc1.bias f4 [32]
1.6006585e-10 -3.8677523e-09 -9.089708e-09 -1.8355921e-07 -2.1508043e-07 8.6880175e-10 -3.6121296e-08 -7.729239e-09
2.635934e-08 -0.025335584 -0.05150581 -2.7661121e-08 0.30418918 2.1199943e-08 1.5020435e-08 -0.023690278
-1.7561161e-06 2.0361577e-08 -0.09891258 2.7899032e-08 -0.03823278 9.343786e-09 -0.0778129 -2.3113844e-06
-1.8828532e-08 1.2270543e-09 -3.0889797e-08 -8.2685725e-09 -0.013482449 -1.4195534e-07 0.07048727 1.7295692e-08
00000000: 88fe 2f2f 1ce5 84b1 f528 1cb2 5f18 45b4
00000010: dcf0 66b4 7dd0 6e30 c923 1bb3 8dc9 04b2
00000020: cd6c e232 928c cfbc c2f7 52bd 739b edb2
00000030: afbe 9b3e 2b1b b632 4906 8132 1d12 c2bc
00000040: b1b3 ebb5 95e7 ae32 ae92 cabd 9fa6 ef32
00000050: fa99 1cbd 6886 2032 5f5c 9fbd 481d 1bb6
00000060: 61bc a1b2 23a5 a830 b1ab 04b3 910d 0eb2
00000070: 7de5 5cbc 636c 18b4 a15b 903d a191 9432

features.8.block.2.fc1.bias f4 [40]
0.1476697 0.08214414 0.32178938 0.51453996 0.10795258 0.17706892 0.09202342 0.16491908
0.077227615 -0.105072714 0.020275274 0.13721988 0.38436016 0.2597462 0.2883734 0.22390008
0.07041148 0.27685687 0.21849239 0.05490838 0.12317842 0.24955465 0.43483618 0.5435873
0.252412 0.14002913 0.25742218 0.28998384 0.4359115 0.0036871766 0.17738596 0.21574101
0.47433272 0.019169573 0.14549325 0.330318 0.27512747 0.34521052 0.28399384 0.21177971
00000000: ba36 173e 303b a83d 94c1 a43e e4b8 033f
00000010: 3e16 dd3d 8e51 353e c676 bc3d 8ce0 283e
00000020: 8329 9e3d 5d30 d7bd 5518 a63c 5e83 0c3e
00000030: dbca c43e 74fd 843e aea5 933e 1046 653e
00000040: e533 903d 2fc0 8d3e 78bc 5f3e 9ce7 603d
00000050: f844 fc3d 418b 7f3e d9a2 de3e 8a28 0b3f
00000060: 253c 813e cc63 0f3e d7cc 833e c378 943e
00000070: cb2f df3e 8fa4 713b aaa4 353e 36eb 5c3e
00000080: bddb f23e 8209 9d3c 2ffc 143e 711f a93e
00000090: 82dd 8c3e 6fbf b03e a467 913e c8dc 583e

classifier.3.bias f4 [2]
0.025715442 -0.0049598035
00000000: 31a9 d23c d985 a2bb

input_bias f4 [16]
4.4486523 2.6077063 2.4269588 -1.939412 2.8522625 2.8109305 0.22125626 -0.115532026
2.67381 2.5200758 2.9356163 -1.21401 0.30793303 0.52615273 1.1055803 -3.2732282
00000000: 5c5b 8e40 a9e4 2640 4b53 1b40 a73e f8bf
00000010: 788b 3640 49e6 3340 0091 623e 0e9c ecbd
00000020: b41f 2b40 ec48 2140 23e1 3b40 ae64 9bbf
00000030: 66a9 9d3e f2b1 063f a883 8d3f 927c 51c0

hardswish_bias f4 [16]
0.036624044 1.4016417 3.545509 0.26953006 0.13581485 2.8977628 0.27867377 0.72426736
1.7061731 0.22296326 0.095145345 0.34272295 0.4757613 0.52409804 0.27206028 1.7072246
00000000: 1803 163d ff68 b33f 9fe9 6240 d8ff 893e
00000010: 0c13 0b3e f274 3940 54ae 8e3e 9669 393f
00000020: e163 da3f 7b50 643e 90db c23d 6279 af3e
00000030: fc96 f33e 4a2b 063f 7c4b 8b3e 5686 da3f

mul_5_bias f4 [16]
3.7680998 -5.8786693 -3.0117466 -2.957334 -1.4090345 -0.15872869 -4.828444 -0.46046335
-8.228959 -3.1530468 0.5755724 -2.0073211 -3.7048807 -2.1112556 -0.95920086 3.3954659
00000000: 8c28 7140 0f1e bcc0 75c0 40c0 f644 3dc0
00000010: 3e5b b4bf c689 22be 9d82 9ac0 dac1 ebbe
00000020: d1a9 03c1 85cb 49c0 b658 133f f377 00c0
00000030: c41c 6dc0 d01e 07c0 308e 75bf 504f 5940

relu_3_bias f4 [24]
-0.56354535 -1.400272 3.497702 -0.5641997 -1.1306355 -2.2279384 1.5788603 5.1251445
-4.246453 -0.11965127 -0.102286205 1.9708632 0.55849236 1.1040093 1.5264113 1.6135372
1.4423078 0.3328969 2.978762 1.7658731 -1.5247482 -0.08652616 -0.049387213 -2.9579225
00000000: 8244 10bf 1d3c b3bf 59da 5f40 646f 10bf
00000010: aab8 90bf 8b96 0ec0 1818 ca3f 2f01 a440
00000020: f1e2 87c0 ba0b f5bd 6e7b d1bd 3f45 fc3f
00000030: 5bf9 0e3f 2d50 8d3f 7261 c33f 6388 ce3f
00000040: 8b9d b83f 7671 aa3e 09a4 3e40 2108 e23f
00000050: f32a c3bf a134 b1bd 3f4a 4abd 9a4e 3dc0

relu_5_bias f4 [24]
-4.0621505 0.09285428 2.5679185 0.4692672 0.9675874 4.021867 -0.86975205 2.9376836
-0.7496702 -0.25929397 0.036486883 -1.5559715 -1.3247635 -1.3900074 -2.6037326 1.4784282
-1.7444912 -2.2115822 0.17335969 -1.7261536 -0.4475441 -0.36468756 2.0589945 -0.6046181
00000000: 23fd 81c0 622a be3d c758 2440 ca43 f03e
00000010: cfb3 773f 22b3 8040 12a8 5ebf 0203 3c40
00000020: 63ea 3fbf 2ec2 84be 4573 153d 132a c7bf
00000030: da91 a9bf c3eb b1bf 8ea3 26c0 233d bd3f
00000040: 7d4b dfbf 908a 0dc0 3485 313e 9af2 dcbf
00000050: 8024 e5be 54b8 babe 91c6 0340 40c8 1abf

mul_6_bias f4 [40]
0.05783075 -1.5983764 -0.39012548 -2.1857698 0.76017535 1.6684027 -0.2000567 -0.98280054
1.2129413 -0.013821827 0.50073546 1.1390926 -0.49735916 -1.4356475 2.641265 0.005886175
2.782673 -4.3620305 2.5753946 0.21413338 -0.5095785 -0.57832086 -0.38070095 -1.4518195
1.4106246 -0.12383601 1.5841094 -1.3312919 -2.115334 3.1502516 -0.08726285 -0.6351027
-0.33098498 1.4909711 -2.3116486 -0.5235277 -1.6976628 1.2472181 -0.8180439 -0.69630784
00000000: f0df 6c3d 9997 ccbf 87be c7be a7e3 0bc0
00000010: da9a 423f 388e d53f aadb 4cbe d198 7bbf
00000020: a941 9b3f f274 62bc 3330 003f c9cd 913f
00000030: dca5 febe 4cc3 b7bf 7c0a 2940 d1e0 c03b
00000040: 5017 3240 c195 8bc0 44d3 2440 c845 5b3e
00000050: bd73 02bf d60c 14bf 3ceb c2be 39d5 b9bf
00000060: 598f b43f bc9d fdbd 19c4 ca3f c667 aabf
00000070: a261 07c0 b99d 4940 ddb6 b2bd 1796 22bf
00000080: dd76 a9be 24d8 be3f 0df2 13c0 e905 06bf
00000090: 044d d9bf d8a4 9f3f 536b 51bf 3b41 32bf

mul_7_bias f4 [40]
-0.6546286 0.7500915 0.063684896 0.10012585 -0.008041084 -0.24379362 -0.08443723 -0.78115267
0.04493051 0.048450634 -0.17170882 -0.045906216 0.0001204554 -0.3392787 0.5314435 1.0761591
0.28275144 0.3460915 -0.15444471 -0.28081304 0.2519778 0.050179806 -0.36178052 0.21312271
-0.3074279 -0.05744672 1.4557052 0.4503222 -0.30439872 0.53002447 0.42588115 -0.2631418
-0.15291096 0.14065924 -0.4438665 0.1573629 0.24912535 -0.62776566 0.2950603 0.1012411
00000000: bd95 27bf ff05 403f 3a6d 823d c80e cd3d
00000010: c0be 03bc 09a5 79be 6ded acbd 9ff9 47bf
00000020: 0e09 383d 2c74 463d 70d4 2fbe 2808 3cbd
00000030: 009d fc38 f0b5 adbe ae0c 083f 95bf 893f
00000040: ccc4 903e e832 b13e c126 1ebe bac6 8fbe
00000050: 3c03 813e 5789 4d3d 4c3b b9be d73c 5a3e
00000060: 3167 9dbe 404d 6bbd 8c54 ba3f a290 e63e
00000070: 26da 9bbe afaf 073f 180d da3e 86ba 86be
00000080: b194 1cbe fa08 103e 7842 e3be bd23 213e
00000090: b71a 7f3e 40b5 20bf 2512 973e 7e57 cf3d

mul_8_bias f4 [40]
1.2961171 0.05320767 -0.71978134 0.3632379 -0.29095313 -0.120165564 0.17698869 -0.6161837
0.009234836 -0.10565395 -0.19774166 -0.08979127 -0.20635588 0.012046445 0.21573232 0.17435421
-0.24928617 -0.2013749 -0.5566046 -0.61233485 0.8762809 0.1174955 0.35938737 -0.7417291
0.05403856 0.42734516 1.2269046 0.34473413 1.4945459 0.35762596 -0.027172077 -0.20418991
0.49856165 1.0315912 -0.35284564 0.46816128 -0.07626843 -0.37818906 0.0077044023 -0.439203
00000000: 2ae7 a53f 49f0 593d 9743 38bf 51fa b93e
00000010: cff7 94be 5d19 f6bd 863c 353e 37be 1dbf
00000020: b64d 173c 1961 d8bd ca7c 4abe 7ce4 b7bd
00000030: f54e 53be 745e 453c efe8 5c3e e989 323e
00000040: e044 7fbe 3935 4ebe a47d 0ebf fac1 1cbf
00000050: f253 603f 7ba1 f03d 9f01 b83e f5e1 3dbf
00000060: 8957 5d3d fccc da3e 360b 9d3f fe80 b03e
00000070: 484d bf3f c01a b73e fa97 debc 2917 51be
00000080: 7943 ff3e 2e0b 843f 2fa8 b4be d6b2 ef3e
00000090: 9f32 9cbd ffa1 c1be 3675 fc3b 37df e0be

mul_9_bias f4 [48]
-0.028380759 -0.15953362 0.6188696 -1.3209974 -0.07245776 -0.22507803 -0.114762224 -0.5340509
1.3169525 -0.034548096 -0.4911733 0.8181439 -2.5342314 0.47504115 -0.2992269 0.67349523
-0.94984746 -0.90483737 -0.7800672 -0.38671917 -0.7017446 1.1528162 -1.2827619 -0.6037276
0.39471912 0.7331781 0.8352916 -0.04176654 -1.4803351 0.3533659 0.059275158 -1.7580048
-0.030073984 -0.74992734 -0.07861422 1.2499999 -1.391447 -0.2944964 1.146954 0.77598614
0.9865141 -0.49140695 0.32482022 -0.60642755 -0.79924315 0.33290866 -0.7498261 -0.41590983
00000000: c47e e8bc c85c 23be 3d6e 1e3f 7116 a9bf
00000010: bc64 94bd db7a 66be 7508 ebbd 8fb7 08bf
00000020: e691 a83f 4e82 0dbd 117b fbbe e171 513f
00000030: d930 22c0 9838 f33e 4534 99be 2f6a 2c3f
00000040: 3429 73bf 6ca3 67bf 7cb2 47bf 0e00 c6be
00000050: 89a5 33bf 7b8f 933f 8b31 a4bf e48d 1abf
00000060: a018 ca3e 8fb1 3b3f acd5 553f 6413 2bbd
00000070: 9f7b bdbf 60ec b43e 82ca 723d 4d06 e1bf
00000080: b75d f6bc 3dfb 3fbf 7e00 a1bd ffff 9f3f
00000090: ef1a b2bf 3bc8 96be 64cf 923f 07a7 463f
000000a0: 308c 7c3f b199 fbbe d64e a63e d63e 1bbf
000000b0: 339b 4cbf 0173 aa3e 9af4 3fbf 22f2 d4be

mul_10_bias f4 [48]
0.9906206 0.0076155257 -0.44794053 0.29556823 -0.77078295 0.26732218 -0.11824162 -0.2737226
0.6779711 -0.03696689 0.07483852 0.21966888 -0.16285896 -0.028832374 -0.06759846 0.19348584
-0.32037553 0.29019052 0.0012446814 -0.030373482 -0.39141786 -0.40175694 0.3903856 0.15197441
0.2930583 -0.0984405 0.04231161 0.0502937 1.0213666 0.06963531 0.33904034 0.2659847
0.27088043 -0.16939141 -0.34825918 0.00026880717 -0.45672348 -0.07140551 0.28827256 0.36955193
0.3871654 0.3691337 0.035423897 -0.13735132 0.98928964 -0.18190739 0.14350805 0.11509163
00000000: 5099 7d3f a98b f93b 7658 e5be b854 973e
00000010: 0852 45bf 74de 883e aa28 f2bd 5e25 8cbe
00000020: 848f 2d3f 986a 17bd f044 993d e1f0 603e
00000030: 80c4 26be df31 ecbc 1071 8abd 2721 463e
00000040: 4308 a4be da93 943e 9424 a33a cfd1 f8bc
00000050: ec67 c8be 16b3 cdbe 9fe0 c73e 2e9f 1b3e
00000060: bd0b 963e 2c9b c9bd f04e 2d3d c400 4e3d
00000070: 24bc 823f f59c 8e3d b296 ad3e 262f 883e
00000080: d7b0 8a3e f174 2dbe 074f b2be b0ee 8c39
00000090: a9d7 e9be 0d3d 92bd 7698 933e e935 bd3e
000000a0: 8b3a c63e 18ff bc3e a618 113d d3a5 0cbe
000000b0: 1642 7d3f ee45 3abe c6f3 123e 29b5 eb3d
