weights/tiny_attention_eye.onnx (onnx, 26137 bytes, 5 tensors)

classifier.1.bias f4 [64]
0	0x3bbb9b8d	0.00572533
1	0x3d98746e	0.07444082
2	0x3e0412d3	0.12897806
3	0x3dd9e5fd	0.1063957
4	0x3bbdb8da	0.0057898583
5	0x3de57d7e	0.11205576
6	0xbbb7c810	-0.005608566
7	0xbd06e414	-0.032932356
8	0x3d91930f	0.07108127
9	0xbd1fbccf	-0.03899842
10	0x3d1d654d	0.038426686
11	0x3d6ccbfb	0.05781172
12	0x3cbd058c	0.023073934
13	0xbd5beea6	-0.05369439
14	0xbd0f74f3	-0.03502364
15	0x3d8eb1c1	0.069674976
16	0x3d78785a	0.06066165
17	0x3c935607	0.017985357
18	0xbcc849da	-0.024449278
19	0x3dac34aa	0.084084824
20	0xbba01f59	-0.0048865494
21	0xbd8f90f9	-0.07010073
22	0x3be2a178	0.006916221
23	0x3b4eb297	0.0031539553
24	0xbcf516b7	-0.029918058
25	0xbd398512	-0.04529292
26	0xbc9eab5a	-0.019368816
27	0x3b29533d	0.0025836967
28	0xbb42461f	-0.0029643846
29	0xbd27f9b8	-0.041009635
30	0xbca11c31	-0.019666763
31	0xbd335a79	-0.043787453
32	0x3db59045	0.08865408
33	0xbc977b28	-0.018491343
34	0x3d1b7ae7	0.037959006
35	0xbd892f2e	-0.06698452
36	0x3d7e0e29	0.062025223
37	0x3d72c556	0.059270225
38	0x3d223133	0.0395977
39	0xbc58e19f	-0.013237386
40	0x3d01cb78	0.031688184
41	0xbd8a9f82	-0.06768705
42	0x3d91e222	0.071232095
43	0xbcf37f84	-0.02972389
44	0xbce882c9	-0.028382676
45	0x3dbb1caa	0.091363266
46	0x3c943c01	0.018095018
47	0xbd64f667	-0.05589905
48	0xbd479036	-0.048721515
49	0xbc5d5806	-0.013509756
50	0x3ba9001e	0.0051574847
51	0xbd215075	-0.03938337
52	0x3d589595	0.052877028
53	0x3dc0528b	0.09390744
54	0xbc03a540	-0.008035004
55	0xbc6019f4	-0.013678063
56	0x3cd6ff6b	0.02624484
57	0xbd05d195	-0.032670576
58	0x3ced4399	0.028962897
59	0x3d71e56e	0.05905669
60	0x3c9bf5ee	0.019038167
61	0xbb14011f	-0.0022583676
62	0xbccfa723	-0.025348252
63	0x3deb2622	0.11481883

classifier.4.weight f4 [1, 64]
0	0x3f0837bd	0.5321005
1	0xbf045981	-0.5169907
2	0xbef42df3	-0.47691306
3	0xbf07240d	-0.52789384
4	0xbef26aa8	-0.47346997
5	0xbf121faa	-0.57079566
6	0x3f19a04d	0.60010225
7	0x3b5a0b7c	0.0033271005
8	0xbef9fdc4	-0.4882642
9	0x3efc2894	0.4924971
10	0xbc740e30	-0.014895961
11	0xbf107beb	-0.56439084
12	0xbf1df76c	-0.6170566
13	0x3dcdd925	0.10051183
14	0x3f01088f	0.50403684
15	0xbeefbc95	-0.46823564
16	0xbed8b7bc	-0.42327678
17	0x3d251eba	0.040312506
18	0x3d24487e	0.040108196
19	0xbf0bd60e	-0.54623497
20	0xbc0df61d	-0.008664635
21	0x3db6dd13	0.08928885
22	0x3f0f597e	0.5599593
23	0x3dafa70d	0.08576784
24	0x3db42d65	0.08797721
25	0x3d628d45	0.055310506
26	0xbf282e48	-0.6569562
27	0xbd5832db	-0.052782875
28	0x3f05cce1	0.52265745
29	0x3bfe3a76	0.007758434
30	0xbf08b57b	-0.5340192
31	0xbdb1b4f7	-0.086770944
32	0xbef558b3	-0.47919235
33	0x3d6f8248	0.058473855
34	0xbefb358e	-0.49064296
35	0x3f1b8c0f	0.6076059
36	0x3efd32b4	0.49452746
37	0x3f0b1ee9	0.5434404
38	0x3f06946b	0.5257022
39	0x3f02a4b6	0.5103258
40	0xbd510a94	-0.05103548
41	0x3dd4ac18	0.10384387
42	0xbf058c49	-0.52167183
43	0xbf30f3a0	-0.6912174
44	0x3f01f19e	0.50759304
45	0xbee894cc	-0.45426023
46	0xbef4d091	-0.47815374
47	0x3efe0e4a	0.49620277
48	0x3f11335b	0.5671899
49	0x3f1081eb	0.5644824
50	0x3dc620a8	0.096741974
51	0x3ede77d0	0.43450785
52	0xbf22ede3	-0.63644236
53	0xbf083132	-0.53200066
54	0x3eed5e9e	0.4636125
55	0x3eef81da	0.46778756
56	0x3f055ac5	0.5209163
57	0xbef56372	-0.47927433
58	0xbf37c55c	-0.7178552
59	0xbf1131e0	-0.5671673
60	0x3f132db3	0.57491606
61	0x3ee15466	0.44009703
62	0x3de5a1b5	0.11212484
63	0xbf1e342b	-0.6179835

input_bias f4 [16]
0	0x3e6cbaef	0.23118185
1	0xbd69e9ea	-0.057107843
2	0x3ea7e215	0.32789674
3	0xbe4b6911	-0.19864298
4	0xbe6f0996	-0.233435
5	0xbe2de3a8	-0.16981375
6	0xbdd594b4	-0.104287535
7	0xbdc48086	-0.095948264
8	0xbd07d5cb	-0.033162873
9	0xbea3880f	-0.31939742
10	0x3ee6fccf	0.45114753
11	0xbdd126d1	-0.10212482
12	0xbe306726	-0.17226848
13	0x3eaf075d	0.34185305
14	0xbe641df4	-0.22277051
15	0x3dcaa5d3	0.0989491

max_pool2d_bias f4 [32]
0	0x3ea16694	0.31523573
1	0x3ea53ff6	0.3227536
2	0x3f6167ca	0.88048995
3	0x3e626e6b	0.22112434
4	0x3dce7d9a	0.1008255
5	0x3f2f9fed	0.686034
6	0x3e03ed0c	0.12883395
7	0x3f19a079	0.60010487
8	0x3f43c467	0.7647156
9	0x3f1ca25c	0.6118524
10	0x3f5eb7ba	0.86999094
11	0x3f22a75c	0.6353662
12	0x3f02bfe6	0.51074064
13	0x3f022656	0.50839746
14	0x3edb0054	0.42773688
15	0x3f88161d	1.0631748
16	0x3f45a51c	0.7720506
17	0xbf20d26b	-0.6282107
18	0x3f29233e	0.660694
19	0x3f49c99b	0.7882325
20	0x3f1efc0d	0.6210335
21	0x3f90c1b0	1.1309109
22	0x3f5bc481	0.85846716
23	0x3f1622da	0.5864693
24	0x3eb40999	0.35163572
25	0x3f2238a3	0.6336767
26	0xbf87c38c	-1.0606551
27	0x3f342277	0.7036509
28	0x3f5a8f4e	0.85374916
29	0x3f501178	0.81276655
30	0x3ef047c9	0.46929768
31	0x3ef5584e	0.47918934

max_pool2d_1_bias f4 [64]
0	0x3eb4d475	0.35318342
1	0x3f99c75c	1.2013965
2	0x3f572998	0.8404784
3	0x3f06f728	0.5272088
4	0x3f4dcae8	0.80387735
5	0x3e41b50e	0.18916723
6	0x3f10d7be	0.56579196
7	0x3f391c80	0.7230911
8	0x3f058354	0.52153516
9	0x3fd29320	1.6451149
10	0x3f04009a	0.5156342
11	0x3f84d0b8	1.0376196
12	0x3f8017a8	1.0007219
13	0x3f87123e	1.0552442
14	0x3fdd2e0c	1.7279677
15	0x3f6d8c93	0.92792624
16	0x3ebd85c9	0.37016132
17	0x3fcf5bb4	1.619986
18	0x3faa4bef	1.3304423
19	0x3f6b89b8	0.9200702
20	0x3e3c700f	0.18402122
21	0x3f8e6ca8	1.1126909
22	0x3fa4229f	1.2823066
23	0x3fb45f5a	1.4091599
24	0x3f17b6eb	0.59263486
25	0x3f9d183e	1.2273023
26	0x3e5f0afc	0.21781534
27	0xbf1782f8	-0.5918422
28	0x3e82c7fe	0.25543207
29	0xbeb07980	-0.34467697
30	0x3fc18e83	1.5121616
31	0x3f3a88ac	0.72864795
32	0x3f1649f2	0.5870658
33	0x3eef61af	0.46754214
34	0x3f8a2fa2	1.0795786
35	0x3e6fb12b	0.23407428
36	0x3ef75a7b	0.4831122
37	0x3f889a6f	1.0672129
38	0x3dbe2750	0.09284842
39	0x3f071f00	0.5278168
40	0x3fb520fa	1.4150689
41	0x3f7808d7	0.9688849
42	0x3f37fbaa	0.71868384
43	0x3f844c31	1.0335752
44	0x3f5f43d0	0.8721285
45	0x3f778e2d	0.9670132
46	0x3f0e2243	0.5552103
47	0x3f8c5f59	1.0966598
48	0x3e87398a	0.26411086
49	0xbe673a88	-0.22580922
50	0x3f5f35fc	0.8719175
51	0x3fa9dac1	1.3269883
52	0x3ff5a50b	1.9190992
53	0x3dbde842	0.09272815
54	0x3f0bd027	0.5461449
55	0xbebe0584	-0.37113583
56	0x3f25a2c8	0.6470151
57	0x3fa813a8	1.3130999
58	0x3f9e1ab4	1.2351899
59	0xbf3e4722	-0.7432729
60	0x3fd3e26d	1.6553475
61	0x3fa4f0ec	1.2886024
62	0x3f47dd48	0.78072023
63	0xbe8b3a52	-0.27192932
